data/best_model.pth (torch, 176738 bytes, 9 tensors)

lstm.weight_ih_l0 f4 [256, 100]
000000 8d f2 98 3d 18 50 59 be f5 f1 29 bf 23 b4 ed 3e
       0.07468138 -0.2122196 -0.6638482 0.46426496
000010 6c 29 aa 3e 3c 2b 7f 3f d7 95 83 bf a2 90 9c bf
       0.33234727 0.99675345 -1.0280102 -1.2231638
000020 d0 70 38 bf 4a 85 31 3f 18 de a2 3e cd ae 92 bf
       -0.7204714 0.6934401 0.3181007 -1.1459595
000030 f7 66 bf 3e 78 04 40 be 99 6f dc 3f 58 51 3e 3e
       0.37383243 -0.18751705 1.7221557 0.18585718
000040 ca 72 11 3f 24 3f a0 3f 5b 0c 0d bf 14 01 0e bf
       0.5681578 1.2519269 -0.5509698 -0.55470395
000050 4a ba af 3f 09 46 f0 be 61 ee ab be 67 0a af 3f
       1.3728726 -0.46928433 -0.33580306 1.367505
000060 c7 d3 01 be d2 fb 05 c0 7b c5 ec be 05 44 ad be
       -0.12678443 -2.093495 -0.46244416 -0.33840957
000070 09 c7 e1 bf 6a 53 c1 bf 7d f5 74 be d6 9b 46 3f
       -1.7638866 -1.5103581 -0.23921771 0.77581537
000080 90 7f a8 3f 3d 41 61 bf 91 4e 6b bf ce fa 58 3f
       1.3163929 -0.8799017 -0.9191676 0.847577
000090 29 1f da be 64 07 85 bf 6a 07 e0 bf 8d c2 81 3f
       -0.42601898 -1.039288 -1.7502263 1.0137497
0000a0 19 80 02 bf 65 7c 87 be 9b 5e 74 3f 55 84 6b 3f
       -0.5097671 -0.26462093 0.95456856 0.919988
0000b0 cf 4c 46 40 c7 1a c9 be a4 86 2b 3f fc 47 cc 3e
       3.098438 -0.39278242 0.6700232 0.3989867
0000c0 f2 7b 04 bf 4f fa 80 bf b4 ec 02 c0 c8 c8 eb be
       -0.51751626 -1.0076388 -2.0456972 -0.4605162
0000d0 f0 20 99 3f 7e 7c 79 3c 28 b3 33 bf 33 11 82 bf
       1.1963177 0.015227435 -0.70195246 -1.0161499
0000e0 18 e7 b4 3f b7 99 db 3f ec b4 d7 3e 30 05 76 bf
       1.4133024 1.7156285 0.4213022 -0.96101665
0000f0 54 d2 42 3f 62 8b dd be d9 7e bb bf 97 b2 92 3f
       0.76102185 -0.43270403 -1.4648086 1.1460751
000100 5c 03 40 40 80 c2 57 3f 95 9e cb 3f e8 9a 1b 3f
       3.000205 0.8428116 1.590777 0.60783243
000110 5e 92 0a bf a8 e5 79 be 9d c5 8a bf 93 27 9d be
       -0.5412959 -0.24404013 -1.0841557 -0.30694255
000120 c4 f5 8a 3f ac 03 c9 bf 99 f0 c8 bf eb bf 7f 3f
       1.0856252 -1.5704246 -1.5698425 0.9990222
000130 0b ca 84 be 35 5a 0c 3e 52 90 f2 bf 28 16 b2 bf
       -0.25935397 0.13706286 -1.8950293 -1.3913012
000140 25 51 e2 3e 5d b4 8e bf d9 f9 d8 3e 5c 75 ac bf
       0.44202533 -1.1148793 0.4237812 -1.3473315
000150 0d 91 61 3f 3f 66 d4 3c f1 cb 5b 3e 6c c0 1a bf
       0.88111955 0.025927661 0.21464516 -0.6044986
000160 0b ab 97 bf bd 4d 01 c0 de 6d 70 3d cf 7c 6a bf
       -1.1849073 -2.0203698 0.058698528 -0.9159669
000170 88 ec a4 bf 40 53 07 3f 83 3e a6 3f af 5a 9a bf
       -1.2884684 0.52861404 1.2987827 -1.2058924
000180 92 63 c7 3f 19 b4 55 bf 8a a1 5b 3f 04 56 0f 3b
       1.5577261 -0.8347793 0.85793364 0.0021871338
000190 66 fc 09 c0 04 0d ef be 7a 3f f7 bf d2 02 68 bf
       -2.1560302 -0.46689618 -1.9316247 -0.90629303
0001a0 b0 54 1e 40 32 08 c0 be 51 1a 85 bf 25 58 bd bf
       2.473919 -0.37506253 -1.0398656 -1.4792525
0001b0 e7 a9 e1 be cb 3b 5f 3f 26 78 33 3f f8 59 42 c0
       -0.44074938 0.8720061 0.70105207 -3.0367413
0001c0 1f 16 d4 3f bb 11 39 bf da d8 0f bf f6 97 c5 be
       1.6569251 -0.7229268 -0.56190264 -0.385925
0001d0 db 5a b7 be ed 57 50 3f 40 c4 da 3f 1d 27 ef 3f
       -0.35811505 0.81384164 1.7091141 1.8683811
0001e0 c8 08 30 40 14 cf b5 3f 10 bd 1c bf 7a c1 8b 3e
       2.750536 1.420382 -0.61225986 0.27296048
0001f0 7b c3 1e bf 84 b9 a4 bf e2 fb fa 3f 28 71 52 3f
       -0.6201703 -1.2869115 1.9608119 0.8220391
000200 f8 8f 2d 3f d7 42 0f bf d2 73 61 bf b5 da b5 3e
       0.67797804 -0.55961365 -0.8806735 0.35518423
000210 35 4e 90 3c 62 5e 65 3f 5d 2e 60 bf 0e 89 07 bf
       0.017615417 0.8959714 -0.87570745 -0.52943504
000220 f4 ca 2a 40 e4 3a c7 3f 75 c9 3a bf 95 b2 8c 3d
       2.6686373 1.5564847 -0.7296365 0.06869999
000230 f8 c1 2c 3f c3 5e d0 bf 70 00 64 bf e7 48 57 bd
       0.6748347 -1.6278919 -0.8906317 -0.05255976
000240 d1 34 ce 3e fe d6 40 bf 1f 9a c1 be 48 5d b0 bf
       0.4027467 -0.7532805 -0.37812898 -1.3778467
000250 29 b5 0b be 3f 7f 9f 3f dc d4 9e 3e 10 9d cb bf
       -0.13643326 1.2460707 0.31021774 -1.5907307
000260 0b ea 6d 3f d9 a7 41 3f 00 68 3f 40 ce c7 86 3f
       0.92935246 0.7564674 2.9907227 1.0529726
000270 ae 88 80 bf 8e 62 4a 40 ac 97 53 3d e4 3c d3 3e
       -1.0041711 3.1622653 0.051658317 0.41257393
000280 6c 60 78 3f cb 35 59 3f 4f b7 11 bf ba a0 cd 3b
       0.9702213 0.84847707 -0.5692033 0.0062752636
000290 51 2a d4 be 68 88 88 3e 1b 47 ba be 8f 0d a5 be
       -0.41438535 0.2666657 -0.36382374 -0.32236907
0002a0 e1 4f 6a be 58 a7 74 3f 34 33 91 bf 3f 36 9e 3f
       -0.22882034 0.95567846 -1.1343751 1.2360305
0002b0 7d 4e 1f 3f 02 00 a9 3f b4 12 f3 bf cf 96 8d bf
       0.6222914 1.3203127 -1.8990083 -1.1061648
0002c0 2b da 8a bf 3a 74 09 40 93 3d d1 be 03 c3 65 bb
       -1.084783 2.147719 -0.4086729 -0.0035058863
0002d0 35 ab 16 40 bc d2 89 be 93 f2 96 bf b4 ca 61 bf
       2.3541996 -0.2691859 -1.1792778 -0.88199925
0002e0 16 3a 0b 40 3b 06 90 3f ac 4e a9 3f 1e a8 27 3d
       2.1754203 1.1251901 1.3227134 0.040931813
0002f0 02 54 ad 3f 7a b9 8f bf 96 27 70 bf 94 4f 71 bf
       1.3541262 -1.1228478 -0.93810403 -0.9426205
000300 e7 5f b7 3f 0e 38 98 3f ef 2a 5c 3f 59 72 5d 3d
       1.4326142 1.1892107 0.8600301 0.05406413
000310 c7 77 c6 3f 40 62 22 3e 5f 4a e6 bc 59 e1 6d bf
       1.5505303 0.15857792 -0.028111635 -0.9292198
000320 40 e1 c1 be 57 f3 07 bf d0 69 ce bf 0a fc ae 3e
       -0.37867165 -0.5310568 -1.6126041 0.34176666
000330 b8 3a ce 3f ff 6f 61 3f 29 f1 8c 3e 7f 02 cf bf
       1.611167 0.8806152 0.2752774 -1.6172637
000340 ce ac e7 bd e7 d6 1d 3f 99 34 14 bd 46 c0 1a 3e
       -0.11312257 0.6165604 -0.036182974 0.15112409
000350 b2 d0 f8 bf e3 54 d7 be 26 1a 0a c0 d6 29 6c bf
       -1.9438689 -0.4205695 -2.157846 -0.92251337
000360 5a ff 45 3f 9f 54 76 3e c8 39 95 be cf 13 41 3d
       0.7734276 0.24055718 -0.29145646 0.04713803
000370 33 6b 2b 40 c0 4c 96 be b5 ee c5 3f 85 ce 59 bf
       2.678418 -0.2935543 1.5463473 -0.8508075
000380 8b b1 e6 3f 55 29 f8 3f 02 ce af 3e 9c 41 f9 be
       1.8022932 1.9387614 0.3433686 -0.48682868
000390 6c d6 c5 3d 4d d0 dc 3e b7 bb d4 bf c0 9e b3 3e
       0.09660038 0.4312767 -1.6619786 0.35082054
0003a0 33 34 0b 3f ba b7 a8 3f 8d 7c 8b bf 12 37 5a be
       0.54376525 1.3181069 -1.0897385 -0.2131007
0003b0 2b 35 2a 3e 8a a7 68 bf 0d 7e d6 3f a2 2f 18 40
       0.16621844 -0.90880644 1.6757218 2.3779073
0003c0 4b 9d 09 40 3f a5 ff bd d3 68 97 3e 57 e9 de bf
       2.1502254 -0.1248269 0.29572162 -1.741496
0003d0 73 86 6a bf b6 ea 56 3f 7d 03 da 3e f4 c1 bd bf
       -0.91611403 0.8395189 0.42580786 -1.4824815
0003e0 26 15 22 3e 4c 49 84 be a8 ea ad be 1d 19 a9 3e
       0.1582838 -0.2583717 -0.3396809 0.33026972
0003f0 5e f7 76 be dc e7 f3 3e a2 22 8b 3f d9 91 48 3f
       -0.241178 0.47637832 1.0869944 0.78347546

lstm.weight_hh_l0 f4 [256, 64]
000000 f9 ae cd be 79 10 1f c0 50 88 55 3f 19 dc 4e bc
       -0.40172556 -2.4853804 0.8341112 -0.012625718
000010 a7 86 ac 3f ba 2e 22 be 71 78 4e 3f ca ac 37 40
       1.3478593 -0.15838137 0.8065253 2.8699212
000020 d2 43 34 be 4c 27 93 bd 1f bc 9d be 13 46 7a 3f
       -0.17603996 -0.0718523 -0.30807588 0.97763175
000030 0a ae 00 c0 86 d1 71 bf 4c 67 22 3f 03 14 9a be
       -2.0106225 -0.9446033 0.6343887 -0.30093393
000040 07 41 99 bf 55 78 f4 bd e1 b1 a8 be 52 91 80 bf
       -1.197297 -0.11937014 -0.3294821 -1.0044348
000050 e3 ac 99 3d 07 69 13 3e e4 42 b8 be d6 e7 a5 3f
       0.07503679 0.14395534 -0.35988533 1.2961376
000060 bd e4 fe 3f 93 3c b8 3e 48 bd 89 3f 65 15 d9 bf
       1.9913555 0.35983714 1.0760889 -1.6959654
000070 79 9c ba 3f c3 f7 c3 be c1 9b c5 3f 4f 20 63 3f
       1.4579002 -0.38274965 1.5438157 0.88721174
000080 6b 1f 8a 3f f4 93 03 40 d6 65 22 bf 22 0b be 3e
       1.0790838 2.0559053 -0.6343664 0.3711787
000090 9f 51 89 3f 4b c7 ec be 74 3b d3 bf 10 9b 8b 3f
       1.0728034 -0.46245798 -1.6502519 1.0906696
0000a0 2d 5c 06 3f 18 31 55 40 7c 19 b8 3e 68 0f 56 bf
       0.524844 3.3311214 0.35956943 -0.8361726
0000b0 be ce 0d c0 da 63 17 c0 89 bd d9 3f 47 e3 32 3e
       -2.2157435 -2.3654695 1.7010967 0.17469512
0000c0 62 6c a4 3e 95 aa 71 bf 71 de d4 be 59 eb 57 be
       0.3211394 -0.9440091 -0.4157596 -0.21085872
0000d0 96 24 aa 3f 75 8d 99 bf c4 9a 81 3e 7b d8 3a be
       1.3292415 -1.1996294 0.2531339 -0.18246643
0000e0 29 24 3b 3c 2b 62 06 c0 e3 d3 1d 3f bc 81 79 be
       0.0114221955 -2.0997417 0.6165144 -0.24365896
0000f0 c0 0b 02 bf 35 4d 99 3f f5 7f 8c bf 1e 93 3f bf
       -0.5079918 1.1976687 -1.0976549 -0.7483386
000100 7e a6 b7 3d 6a 79 62 bf 6a 09 a2 3e e7 ec 4e bf
       0.08967303 -0.88466513 0.31647807 -0.80830234
000110 71 de d9 bf 44 47 75 3f 4e 1c cb bf 87 d1 00 c0
       -1.7021009 0.9581187 -1.5868013 -2.0127885
000120 e5 e9 14 bf 11 a9 e9 3f a2 08 06 bf 91 01 83 3c
       -0.58169395 1.825472 -0.5235692 0.015991958
000130 33 c8 5f 3f ba 70 48 3f 49 e3 09 3d 87 65 4b 3e
       0.87414855 0.7829701 0.03366402 0.19862948
000140 bb 93 9c 3f a0 4e c0 3f 93 ce b5 3f 57 9d 75 3f
       1.2232584 1.5023994 1.4203666 0.95943207
000150 68 da c6 bf fb 85 73 3f e9 19 fb bf 91 72 08 be
       -1.5535402 0.9512631 -1.9617282 -0.13324954
000160 d4 54 40 bd bd 05 43 3f 3a 47 ae bf 18 4b 82 3f
       -0.0469559 0.7618063 -1.3615487 1.0179167
000170 e9 7b 15 c0 9c 1b a0 3f fd 22 83 be 83 84 ca bf
       -2.3356879 1.2508426 -0.2561263 -1.5821689
000180 61 e9 08 c0 82 b8 50 bf ff 05 1c 40 9e 06 6c bf
       -2.1392443 -0.81531537 2.437866 -0.921976
000190 5e 50 19 40 19 97 2f 3d 9e 35 e8 3e 05 e8 14 bf
       2.3955302 0.042868707 0.45353407 -0.58166534
0001a0 91 2e 40 3f f1 05 0d c0 a1 a3 55 3e 71 7f e5 bf
       0.75071055 -2.2034876 0.208632 -1.7929517
0001b0 34 f4 fe 3f 07 af d2 3f 1b 24 ee 3f 22 9a 87 bf
       1.9918275 1.6459664 1.8604769 -1.0593913
0001c0 de 1d 3d bf d4 da 54 bf 4c 31 80 bf 04 41 4d be
       -0.738737 -0.83146405 -1.0015044 -0.20044333
0001d0 5a 66 b2 bf a0 08 c1 3e 13 cb d1 3d a4 cc a0 3f
       -1.3937485 0.37701893 0.102438115 1.2562451
0001e0 1a 52 dd 3e 15 9b a8 be 32 01 3c c0 08 35 c1 3f
       0.432267 -0.32930818 -2.937573 1.5094309
0001f0 cf 5e e3 bf ce 29 be 3d dd c8 38 bf bf 35 d7 3e
       -1.7763308 0.09285317 -0.72181493 0.42033193
000200 07 77 3b 3f bb bd c0 bf 5b b4 b0 bf 4a e7 c3 3f
       0.73228496 -1.5057901 -1.380504 1.5304959
000210 03 3b b9 be db c5 4c 3e 8b 8c 65 bf f3 f1 24 3e
       -0.36177835 0.19997351 -0.89667577 0.16107921
000220 0b a0 93 bf 4a fe 93 be fa f6 26 bf 64 8a a7 3e
       -1.1533216 -0.28904945 -0.65220606 0.3272277
000230 ac 00 9a 3f af 5d bc 3f 70 2b 32 c0 a0 f4 d1 3e
       1.2031455 1.471609 -2.7839012 0.41006947
000240 74 1f 65 3f 14 45 1a 3e a3 47 80 3f 7c 71 d4 be
       0.8950112 0.15065414 1.0021862 -0.41492832
000250 2b 18 9b be ff c2 2b 3f 22 ac 67 bf 7b c8 09 bf
       -0.30291876 0.67094415 -0.9049703 -0.53821534
000260 43 50 6d bf b4 18 6b be ca 02 a2 bf 8d 2f 66 bf
       -0.92700595 -0.22958642 -1.2657101 -0.89916307
000270 a7 59 8d 3e 34 41 ce be 7b f3 eb 3e 0b 8b 20 3e
       0.27607462 -0.4028412 0.46084198 0.1567804
000280 3c 23 4d bf ae d1 02 bf b6 d8 59 bf 26 77 08 bf
       -0.8013189 -0.51101196 -0.850963 -0.53306806
000290 5e 8b 1f be 2b e4 4a 3f b4 b4 40 40 8e 10 8d bf
       -0.15580508 0.79254407 3.0110292 -1.1020677
0002a0 79 7c 88 3f 2e 4b 86 bf 97 d0 82 bf 29 d6 88 be
       1.0662986 -1.0491693 -1.0219907 -0.2672589
0002b0 de 3b 7c bf 99 59 bb bf 33 a3 7a 3f 44 14 0e 40
       -0.9852885 -1.4636718 0.9790527 2.219987
0002c0 46 ec ce 3e 02 d7 ce 3f 8a 91 1a bd 71 dd 26 3e
       0.40414637 1.6159365 -0.037736453 0.1629541
0002d0 14 b3 85 bf 24 9d 01 bf 27 0e bd 3f 71 37 04 bf
       -1.0445275 -0.506304 1.4769944 -0.51647097
0002e0 93 b1 90 bf 92 bf 95 bf f3 98 26 3e 68 2a c0 bf
       -1.1304191 -1.1699088 0.16269283 -1.5012941
0002f0 c6 a6 fb 3f ce e2 1a bf 0b 41 9b 3e c2 7a b1 bf
       1.966027 -0.60502326 0.3032306 -1.3865588
000300 74 bb b2 bd de 58 5b 40 c4 87 1b 3e a6 5d e9 3f
       -0.0872716 3.427299 0.15188509 1.8231704
000310 53 00 d9 bf d6 3c db 3f c5 41 f9 be d9 34 e6 be
       -1.6953224 1.7127941 -0.4868299 -0.44962195
000320 2d ef 90 3f cb 42 5d bf d2 8a e8 3f 40 18 73 3f
       1.1322991 -0.86430043 1.8167365 0.9495888
000330 e3 d7 1b 3e e9 50 00 c0 65 43 c4 3f 13 c9 10 3f
       0.15219073 -2.0049384 1.5333067 0.56556815
000340 54 0f 15 40 66 fb c1 bf 3f 16 39 bf 9a f4 e7 bf
       2.3290606 -1.5154846 -0.7229957 -1.8121521
000350 1b c1 6b 3f 9d 59 42 40 b9 86 f4 be df 70 5f bf
       0.9209153 3.0367196 -0.47759035 -0.872816
000360 a1 1e dd 3e 6e 09 42 3f b1 7f f9 3f d8 55 a1 bc
       0.4318743 0.7579564 1.9492093 -0.019694254
000370 a8 87 58 be ea af 69 bf 32 56 dc 3f 47 65 f6 3f
       -0.21145499 -0.9128405 1.7213805 1.9249657
000380 f7 94 2a 3e a9 28 47 3f 59 21 08 3f b6 3c 8a bf
       0.16658388 0.7779642 0.53175884 -1.0799778
000390 9a 0c 0c 3e 64 04 20 bf 78 01 15 c0 9c fc 87 bf
       0.13676682 -0.625067 -2.3282146 -1.0623965
0003a0 dd 22 0d be 93 78 56 bf 53 f9 9b bf e4 e2 5b bf
       -0.1378283 -0.8377773 -1.2185463 -0.8589308
0003b0 b6 92 f9 3f 93 0f 1c 40 23 b8 b6 3f 4e 28 29 40
       1.9497898 2.4384506 1.4274944 2.643085
0003c0 bc 36 32 bf 37 df 01 bf 18 55 01 bf 59 61 c5 3f
       -0.6961477 -0.50731224 -0.5052047 1.5420333
0003d0 29 ee 21 3e e3 e7 99 be 90 93 8a 3e 74 3c cc 3f
       0.15813507 -0.30059728 0.27065706 1.5955949
0003e0 ac 1d 21 40 30 bf 19 40 d1 ac 6c be a8 f0 8e bc
       2.517436 2.4022942 -0.23112799 -0.017448738
0003f0 da ee c0 3e 51 58 b6 3e 9d 11 6a 3f 9f f7 1c 3f
       0.3768223 0.35614255 0.91433126 0.6131534

lstm.bias_ih_l0 f4 [256]
000000 19 85 64 3e 31 f1 29 bf 2b bc 80 bd 84 15 0c bf
       0.22316398 -0.66383654 -0.0628589 -0.5472033
000010 c0 df 30 3f 11 a7 29 3f dd 0d fc be fa 5d fe 3e
       0.69091415 0.6627055 -0.49229327 0.49681073
000020 10 c1 8b 3e c7 cb eb bd e7 29 0e bb ec ec a3 3e
       0.27295732 -0.11513477 -0.0021692456 0.32016695
000030 e9 94 8c 3e 86 9d 9b bd fd a0 2f bf a5 88 04 bf
       0.2745736 -0.075984046 -0.68605024 -0.51771003
000040 ad bf 40 3f c2 01 46 3e 0b 2b aa be 4f 77 70 3d
       0.75292474 0.19336608 -0.33235964 0.05870753
000050 57 34 b5 3e 11 e8 62 3f c7 b5 5c bd 8b 8a 2d 3e
       0.35391495 0.88635355 -0.053884294 0.16947381
000060 81 65 3a 3e 55 5e cf bd ec bd d7 bc 1b 91 75 bf
       0.18202783 -0.10125414 -0.026335679 -0.9592454
000070 97 64 c0 3e 06 27 86 3d fd 94 7a be b4 ce e2 bc
       0.37576744 0.06550412 -0.24470897 -0.027686454
000080 5b 92 11 3f 4e 58 e1 be 56 f8 09 3f 96 cf 86 3e
       0.56863946 -0.44012684 0.53894556 0.2633025
000090 04 ea 82 3c f7 e8 1a bf f4 63 df be 41 f0 ce 3e
       0.015980728 -0.60511726 -0.43630946 0.40417674
0000a0 b5 13 6d be 37 5d 27 3f 04 22 62 bf 9a cc eb be
       -0.23152049 0.6537661 -0.88333154 -0.46054536
0000b0 70 cf 98 be 11 d3 b5 be 26 9d 4f 3e a3 9d 80 be
       -0.29845762 -0.35512593 0.20274791 -0.25120267
0000c0 79 db c3 3e 67 64 1e 3f ca 54 c0 3e 0c 92 aa bd
       0.38253382 0.6187195 0.3756469 -0.083286375
0000d0 50 70 76 3d a3 79 3f bf ed 77 21 bf b7 68 a0 3e
       0.060165703 -0.7479498 -0.6307362 0.3132989
0000e0 63 bc 6a 3d 35 e9 b9 be 73 c3 a7 3e 31 fc a6 be
       0.057308566 -0.36310735 0.32766303 -0.32614282
0000f0 de 05 99 bf 23 e5 20 bd 19 ee 1f 3e 10 6a 22 bf
       -1.1954916 -0.03928102 0.15618171 -0.6344309
000100 fd 44 6d be d8 f8 a6 be 6e c6 bd 3d 2a 3b ae be
       -0.23170848 -0.32611728 0.09266363 -0.34029514
000110 bc 28 26 3f a4 8b f9 be 3f dd 03 bf f3 72 12 3f
       0.64905906 -0.4873935 -0.5150947 0.5720665
000120 60 65 13 bf 53 b2 23 3f 16 4a 8a bf be d0 4b 3e
       -0.5757656 0.63943976 -1.0803859 0.19903848
000130 6a 1f 81 3f 10 c4 63 be 48 2e f8 be e8 f8 54 be
       1.0087712 -0.2224276 -0.4847281 -0.20798075
000140 23 f1 4b 3f 67 72 a7 be 44 c6 2e be 7b 8f 6b 3e
       0.7966482 -0.3270447 -0.1706782 0.23003952
000150 ce b6 c5 be 1b 84 d5 be 9f 44 34 3e 49 2e e2 be
       -0.3861603 -0.4170235 0.17604302 -0.44175938
000160 b5 bf 83 3f 3a 61 1d bf 91 07 15 3e f6 a3 84 be
       1.0292879 -0.6147648 0.14553668 -0.25906342
000170 fc 2e cd be 51 98 ea 3d 8b 0e 92 3e 51 ae 25 bf
       -0.4007491 0.11454833 0.2852672 -0.6471911
000180 67 fe 48 3f 2e be 97 bf ea 95 37 bc 21 12 0b bf
       0.7851319 -1.1854913 -0.011205176 -0.5432454
000190 00 cf 3d bf f4 bc 17 bf b0 72 0c bf 8e 2b 1f be
       -0.7414398 -0.59272695 -0.548625 -0.15543959
0001a0 88 8c 03 3f 72 74 e0 be 79 9c b3 3e 74 ad f5 3d
       0.5138631 -0.4383884 0.35080317 0.11995974
0001b0 33 83 4d bf bc a2 1d bc 38 19 5c bf e4 57 c3 3a
       -0.8027832 -0.009621318 -0.8597598 0.0014903513
0001c0 f8 52 be 3e 19 97 95 bd 27 7b b8 3e 88 7a 82 bf
       0.37172675 -0.0730421 0.36031458 -1.0193644
0001d0 4d 42 df 3e ec 6e 07 bf 63 be 82 be 4d 34 a6 3e
       0.4360527 -0.5290363 -0.2553588 0.32461777
0001e0 ce d5 fa 3d 4c 03 02 bf 5a f9 3e bd a4 8e 9b 3f
       0.12247811 -0.5078628 -0.04662452 1.2152905
0001f0 db 17 93 3e 38 f5 11 3f c0 f1 27 bf f4 c4 2b bf
       0.28729138 0.570148 -0.65603256 -0.670974
000200 a7 77 94 bf 24 b1 4b be 91 23 a7 3e ba e0 2c bf
       -1.1599015 -0.19891793 0.32644323 -0.67530406
000210 60 64 55 3f d4 1a 43 bf 0d f5 dd 3e 4b ec 4f 3f
       0.83356285 -0.7621281 0.4335102 0.8121993
000220 76 aa eb 3e bf bc 0f bf 38 d4 5f be 63 e5 74 3f
       0.4602849 -0.5614738 -0.21858299 0.95662516
000230 a0 f9 fd be c7 31 48 3e 6d de f0 be e6 0b 83 3e
       -0.4960451 0.19550239 -0.47044697 0.25595015
000240 20 98 43 bf b2 58 85 3e d9 b9 76 bd a6 b3 29 be
       -0.76404 0.26044232 -0.060235832 -0.16572437
000250 93 d5 99 be 9e f9 41 3e 10 a0 ce 3d 48 7a 69 3e
       -0.30045757 0.18942878 0.10089123 0.22800553
000260 8f e4 0e 3f 1a e6 0d 3f 9d 4f f6 3e 7d 30 86 be
       0.558175 0.5542923 0.48107615 -0.2620887
000270 5b f1 60 bf 7e f8 9c 3e ca 14 1b bf b7 06 10 bf
       -0.8786828 0.30658334 -0.60578597 -0.56260246
000280 75 60 5a 3f 4b d2 6e 3f 1c 47 97 bf 58 cd f9 3e
       0.8530343 0.9328963 -1.1818576 0.48789477
000290 c9 41 2b bf 3c 0b 36 3f 8d b8 5f 3f fb f8 5c be
       -0.66897255 0.7111089 0.8739098 -0.21579354
0002a0 69 35 94 be 30 50 4d 3f 91 90 3d bf ae 04 f7 be
       -0.28947 0.8020048 -0.74048716 -0.48245758
0002b0 ec ec ab bc 14 bf 3d 3d 8a 6a 57 3f b7 5b 85 3e
       -0.020986997 0.046324804 0.8414694 0.26046535
0002c0 90 e8 eb 3e 9e 55 5f be 68 22 8c 3e 84 72 97 bf
       0.4607587 -0.21810004 0.2737 -1.1831822
0002d0 d6 83 41 3f e0 c3 3a be e8 37 18 3f a4 3f 0e bf
       0.7559179 -0.18238783 0.59460306 -0.5556586
0002e0 2a 5b bb bc 3b 0c a1 3c 76 b9 6e be 8f 68 04 bf
       -0.022870619 0.019659152 -0.23312935 -0.51722044
0002f0 a1 52 1e be fd 6f 72 3f b4 40 68 3e de 9e 8a bf
       -0.15461208 0.9470213 0.22680932 -1.0829732
000300 05 ef 33 bf be 4b 30 bf 23 da 97 3e d5 08 c5 be
       -0.7028659 -0.68865573 0.29658613 -0.384833
000310 a4 19 be 3d 26 38 40 3e 29 54 19 be 24 c4 47 3f
       0.09282234 0.18771419 -0.14973511 0.7803366
000320 08 5d e0 be 2e 69 f1 3e 6e 1b d2 bd 31 be 35 be
       -0.43820977 0.47150558 -0.10259138 -0.17748334
000330 6f 88 d0 3e 5c 00 0f bf 89 4c 2b bd 9d a3 fb 3e
       0.4072909 -0.55859923 -0.041821036 0.49148265
000340 27 23 94 bf ca f1 4a be a5 e0 45 bc f6 55 cd 3d
       -1.1573228 -0.19818798 -0.012077485 0.100261614
000350 c2 bf 4f be 31 21 98 3e e4 db c4 3e d9 11 0f bf
       -0.20287994 0.29712823 0.38449013 -0.5588661
000360 e6 7f 82 3e 0d 89 35 3f 63 22 4e 3f d0 6a 98 3d
       0.25488204 0.7091225 0.8052122 0.07442248
000370 e5 d5 1f bf b2 e1 88 bd 7a 9a 77 3e 6f 3d 32 3f
       -0.6243575 -0.06683673 0.24180022 0.6962499
000380 8e e3 a1 3e 88 91 de 3d 0d b5 cb 3e 45 ee 32 bf
       0.31618923 0.10867602 0.39786568 -0.6989482
000390 f5 c5 37 bf 0f 4f ad be 4e 2b 8e 3f cd ed d6 3e
       -0.71786433 -0.3384938 1.1106966 0.41978303
0003a0 cb 30 73 3e 35 20 0a bf 99 de 73 3c 07 eb 01 3f
       0.23749082 -0.53955394 0.014884614 0.5074925
0003b0 04 c2 8e 3e 33 6f b7 be e1 5e 0a bf 1a b0 c0 be
       0.27882397 -0.35827026 -0.54051024 -0.37634355
0003c0 85 5b 29 be f9 40 44 be 41 12 89 3e ee 99 35 bf
       -0.16538818 -0.1916541 0.2677174 -0.70938003
0003d0 76 3c 33 3e ac e4 84 be ae 1b 82 3e dc f0 26 be
       0.17503533 -0.25955713 0.25411743 -0.16302818
0003e0 ab 14 7d 3d 01 e0 0a 3f cb 8a 20 3f b5 72 4a 3d
       0.06178729 0.5424805 0.6271178 0.0494258
0003f0 95 62 6a bf 66 61 07 3f 58 24 fb be 81 5c b6 3d
       -0.91556674 0.52882993 -0.49051166 0.089043625

lstm.bias_hh_l0 f4 [256]
000000 74 4f d5 3e 11 47 2c bf d5 46 46 bd ca 76 30 bf
       0.4166218 -0.6729594 -0.048407394 -0.6893126
000010 74 9e 35 3f 13 28 26 3f e1 49 ec be e5 ea 14 3f
       0.70944905 0.649049 -0.46150115 0.5817092
000020 14 ab 05 3e 0d fc 71 3b 6e 58 9c 3d 7a df ba 3e
       0.13053542 0.0036923916 0.07634054 0.36498624
000030 17 96 a5 3e 35 58 f4 bd 68 fe ec be 8f 21 26 bf
       0.32341072 -0.11930887 -0.46287847 -0.64894956
000040 39 ba 37 3f 81 92 e5 3d 8f 7e 2a be 1f 36 70 3d
       0.7176853 0.11209584 -0.16649841 0.058645364
000050 4b 91 ca 3e cf c4 87 3f 24 e5 35 be 13 9f 65 3e
       0.39563975 1.0606936 -0.17763191 0.22423963
000060 cb b0 eb 3d 91 95 10 3d 49 fd 8f 3d 25 04 7e bf
       0.1150833 0.035298888 0.07030732 -0.99225074
000070 ac 84 5e 3e ee 3d 91 bd 0d 28 5b be 8b fc 75 3c
       0.21730298 -0.0709189 -0.21401997 0.015013824
000080 cc af b3 3e 52 ff fb be 16 fe 2f 3f cd 32 61 3e
       0.3509506 -0.4921823 0.6874708 0.21992035
000090 ca cb fc bd 05 52 55 bf a4 06 16 bf e6 1f 7b 3e
       -0.12343557 -0.83328277 -0.5860388 0.24523887
0000a0 c9 a7 92 bd 25 47 5d 3f 5e 95 6c bf 0c d2 1b bf
       -0.07160909 0.8643668 -0.92415416 -0.6086738
0000b0 49 28 cb be 98 ba 17 be af ca a1 3e a3 64 d2 bd
       -0.39679173 -0.14817274 0.31599948 -0.10273101
0000c0 53 5f ca 3e 83 00 1b 3f fa a6 84 3e f5 8d 52 bd
       0.39525852 0.60547656 0.25908643 -0.051404912
0000d0 97 c1 de bd 9d ff 3f bf 1b eb 0f bf cc 23 59 3e
       -0.10876768 -0.7499941 -0.5621812 0.21205062
0000e0 20 d7 75 3d 30 6e 1d be c5 69 c6 3e 87 eb bc be
       0.060019612 -0.15374064 0.3875257 -0.36898443
0000f0 30 ff b2 bf 72 1d 94 bc 95 7d 51 3e 72 a2 20 bf
       -1.3984127 -0.018080447 0.20458062 -0.6274787
000100 b3 22 61 be a9 e0 23 be 0d e7 39 bd c9 1c 51 be
       -0.21985893 -0.1600367 -0.045386363 -0.20421137
000110 5c b0 26 3f d3 c2 c2 be 0b 7e e2 be 1b 26 3d 3f
       0.65112853 -0.38039264 -0.44236788 0.7388627
000120 f0 1e 01 bf 1b f5 03 3f de 2c 87 bf 43 41 9b 3d
       -0.5043783 0.51545876 -1.0560567 0.07580807
000130 22 fc 73 3f 5c e5 ab bd e0 69 ad be 34 e9 45 bd
       0.953066 -0.08393356 -0.3386984 -0.048318103
000140 17 f1 3b 3f 73 1a a7 be 11 77 ae be 59 4b 0c 3e
       0.7341475 -0.32637367 -0.34075215 0.13700618
000150 d8 b8 ca be 32 57 00 bf 3d f5 4c 3e dd 96 04 bf
       -0.3959415 -0.5013305 0.20015426 -0.517927
000160 3c c0 6e 3f b0 06 f8 be 43 5c 85 bb 20 3f d2 bd
       0.93262076 -0.48442602 -0.0040698363 -0.102659464
000170 96 85 ac be c7 82 a1 3e b1 ec 8b 3e 6c b2 fe be
       -0.33695668 0.31545088 0.2732902 -0.497455
000180 19 0a 41 3f f4 db 77 bf 19 79 c1 bd 67 d6 01 bf
       0.7540603 -0.96819997 -0.09446926 -0.50717777
000190 f0 8c 12 bf a4 2f f8 be dd db d9 be 4e ff 73 be
       -0.57246304 -0.48473847 -0.42550555 -0.2382786
0001a0 a1 9f 00 3f 4e 99 e0 be 39 e5 5b 3e 6a 67 e9 3d
       0.50243574 -0.43866962 0.2147416 0.11396678
0001b0 fb f8 74 bf 80 b4 ec 3d c8 3d 59 bf 72 d1 b5 bd
       -0.95692414 0.11557865 -0.84859896 -0.08877839
0001c0 2e 21 de 3e 23 e6 d5 bc 32 75 73 3e de 11 5e bf
       0.4338469 -0.026110714 0.23775175 -0.86746013
0001d0 f5 b8 de 3e 06 b4 06 bf 8e 9e 6d be 2d fa a6 3e
       0.43500486 -0.52618444 -0.23205015 0.32612744
0001e0 f5 f3 71 3b b2 0a a4 be 78 1c 0d be ca bc 9b 3f
       0.0036919091 -0.3203941 -0.13780391 1.2166989
0001f0 b3 b8 84 3e 3e e1 2b 3f 61 9c 04 bf 80 45 3f bf
       0.25922164 0.6714057 -0.51801115 -0.74715424
000200 1b 5f b1 bf 03 80 87 be 11 ba a9 3e fe e3 3c bf
       -1.3857149 -0.26464853 0.3314977 -0.7378539
000210 b0 8c 58 3f ae 4b 19 bf f3 32 a8 3e c3 c0 81 3f
       0.8458967 -0.59881103 0.3285137 1.0136951
000220 d1 54 09 3f 0d f8 33 bf 36 14 26 be aa 8e 5a 3f
       0.53645045 -0.7030037 -0.16218647 0.8537394
000230 ab b2 ef be 71 a7 ca 3d bb ed 0e bf 52 94 65 3e
       -0.46816 0.09895218 -0.558315 0.22419861
000240 d2 37 54 bf 8a 11 d6 3d 40 d1 5d bd 02 c5 65 be
       -0.82897675 0.10452564 -0.054154634 -0.22438434
000250 c3 d0 9b be 3f a8 6f 3e 8b f1 34 3e 8e 04 90 3e
       -0.3043271 0.23404025 0.17670266 0.28128475
000260 c1 ef 01 3f f0 30 06 3f 53 29 bb 3e 07 09 fd bd
       0.5075646 0.5241842 0.36554965 -0.123552375
000270 c9 db 54 bf 06 15 4d 3e d6 d0 22 bf a7 c9 f5 be
       -0.83147866 0.20027551 -0.6359991 -0.4800541
000280 aa 5b 78 3f 6f 05 54 3f f8 4c 81 bf 12 8f 21 3f
       0.9701487 0.8282079 -1.0101614 0.6310893
000290 59 00 26 bf e6 f4 0e 3f 5e fa 8b 3f ec de 30 3b
       -0.6484428 0.55842435 1.0935781 0.002698834
0002a0 ba 96 9b be 0e 87 4e 3f c7 bc 45 bf 5f 7c c8 be
       -0.30388433 0.8067483 -0.77241176 -0.39157388
0002b0 0b f3 54 be 41 a7 d7 3c 00 27 46 3f 71 7b 83 3e
       -0.20795839 0.02632487 0.7740326 0.25680116
0002c0 fc f3 ce 3e f4 94 43 be 86 e9 bb 3e cb 53 80 bf
       0.4042052 -0.1909979 0.36701602 -1.0025572
0002d0 54 aa 3a 3f e2 3b 85 bd fa 80 e6 3e 9e 3d 00 bf
       0.7291615 -0.06505562 0.45020276 -0.5009402
0002e0 43 ac 2b 3e 5a 6e cc 3d c4 67 a5 be e7 be 06 bf
       0.16764931 0.099819854 -0.3230573 -0.52635044
0002f0 e8 5a 7b be 29 ed 57 3f 7f 3d ce 3d 9b 5a 70 bf
       -0.24546397 0.8434625 0.10070323 -0.9388825
000300 63 16 f2 be b6 76 3a bf b2 fb e0 3d c1 b7 db be
       -0.47282705 -0.7283739 0.10985507 -0.4291363
000310 f2 b7 30 3e a0 5c 55 3e 79 4c 9d 3c d8 87 56 3f
       0.1725767 0.20836115 0.019201504 0.8380103
000320 34 e2 b0 be 02 5f 0f 3f 94 7b bb bd eb 9b 28 be
       -0.3454758 0.56004345 -0.0915443 -0.16465728
000330 5f d1 e5 3e ba 80 21 bf ee 67 1a be 05 c6 00 3f
       0.448863 -0.63087046 -0.15078709 0.50302154
000340 61 b8 a7 bf a5 4b 06 be f7 ff 93 bc 31 a8 0b 3e
       -1.3103143 -0.13114794 -0.01806639 0.13638379
000350 7d b3 c5 bd 7d 0e da 3e 52 9a bf 3e 2d 5e 37 bf
       -0.09653375 0.4258918 0.37422425 -0.71628076
000360 0f 71 3b 3e 0d 9f 20 3f 07 13 3a 3f 1b 3c 1b 3e
       0.18304847 0.6274269 0.72685283 0.15159647
000370 87 d3 40 bf 56 05 d3 3d 04 15 3f 3e d3 b0 59 3f
       -0.75322765 0.10303752 0.1866036 0.8503544
000380 74 f5 f8 3e 02 88 91 3e cf 19 ee 3e 3f 0a 1b bf
       0.48624766 0.28424078 0.46504065 -0.6056251
000390 03 5b 50 bf d0 84 46 be b2 c5 93 3f 67 7c 05 3f
       -0.8138887 -0.19386601 1.1544707 0.5214295
0003a0 ca 46 ad 3e 81 a7 e6 be 9c bd da bd 5c f1 ea 3e
       0.3384307 -0.4504967 -0.10680696 0.45887268
0003b0 be dd c9 3d 0b b2 b4 be 9e 48 16 bf 68 8b 9b be
       0.09856747 -0.35292086 -0.58704555 -0.30379796
0003c0 75 4b c9 bd b1 ea 47 be 2a 8f 36 3e f2 a2 07 bf
       -0.098288454 -0.19523121 0.1782805 -0.5298301
0003d0 38 73 0a 3e 4b 8d bb be 21 b1 2e 3e d2 63 0f 3d
       0.13520515 -0.36631235 0.17059757 0.035007305
0003e0 07 ff e2 3d 45 1d f3 3e 7b 9d 15 3f 76 b7 62 3e
       0.11083799 0.47483268 0.5844342 0.22140297
0003f0 79 d9 72 bf 14 dc df 3e 37 09 35 bf 73 9a 43 3d
       -0.94863087 0.43722594 -0.70717186 0.047754716

batch_norm_lstm.weight f4 [64]
000000 ef ba fe 3f 94 cc 66 3f e6 8a 24 40 ca 7b 02 40
       1.9900798 0.9015591 2.5709777 2.0388055
000010 25 e8 ed 3f 98 eb 82 bf cf e0 db 3f 0d d1 19 40
       1.858647 -1.0228148 1.7177981 2.4033844
000020 6c 16 11 40 ee 98 8d 3f 64 91 e2 3f 34 be 7a 3f
       2.2669935 1.1062295 1.770062 0.97946477
000030 49 b0 12 40 cd 9d 08 40 26 29 b7 3f 5c 85 df 3f
       2.2920096 2.1346314 1.4309433 1.7462573
000040 90 d2 ef 3f 35 b6 55 3f ba 0a 8e 3e 96 d8 f0 3f
       1.8736134 0.8348115 0.2774256 1.8816097
000050 fc 31 64 3d e8 ef e3 3f 15 a4 e4 3f 32 08 02 40
       0.05571173 1.7807589 1.7862574 2.0317502
000060 03 ab bc 3f 43 04 e4 3f f9 06 bf 3f 9e c0 d6 3f
       1.4739689 1.78138 1.4924003 1.6777532
000070 8c 98 0f 40 d9 d2 fe 3f 51 07 08 40 ae b0 09 40
       2.2436857 1.9908096 2.1254466 2.1514087
000080 34 d7 d5 3f c5 8b d7 3f bb 07 fe 3f 1d 80 0c 40
       1.67063 1.6839529 1.9846109 2.1953194
000090 45 05 af 3f bc a8 17 40 3d e4 20 40 e1 e2 51 3f
       1.3673483 2.3696737 2.5139306 0.81986815
0000a0 6b 85 f5 3f f1 43 b8 3f 4f c2 cc 3f 8b a1 97 3f
       1.9181341 1.4395734 1.5996798 1.1846174
0000b0 8d 96 07 40 c2 22 d0 3f 89 8d dc 3f 88 17 cd 3f
       2.118564 1.6260607 1.7230693 1.6022806
0000c0 34 3e e9 3f 4d ff 12 40 8e 66 ee 3f 02 10 0b 40
       1.8222108 2.2968323 1.8625047 2.172852
0000d0 03 ea 11 40 64 49 e6 be 79 fa 7b 3f e7 77 00 40
       2.279908 -0.44977868 0.98429066 2.0073183
0000e0 37 a6 fa 3f 42 10 05 40 bf bd 02 40 5b 47 cc 3f
       1.9581975 2.0791173 2.0428312 1.5959276
0000f0 f9 f0 63 3f 2b 9d c9 3f ab 0f 02 40 48 cc 13 40
       0.8903957 1.5751089 2.0322063 2.3093433

batch_norm_lstm.bias f4 [64]
000000 9a e6 01 bf 15 0f 1c be f1 2c a7 3d dc 00 19 bf
       -0.50742495 -0.15240128 0.08162869 -0.59766936
000010 d3 8a 3d bf 51 73 48 be c4 3e cc 3e 6c 20 23 be
       -0.74039954 -0.1957524 0.39891636 -0.15930337
000020 fa 8e 56 3f cd e3 8b be 94 d4 18 be 7b f2 8e 3d
       0.83811915 -0.27322236 -0.14924842 0.06979843
000030 20 5e 70 bf 49 29 d1 3e 1e 34 e8 3e 3d ff 23 bf
       -0.93893623 0.4085181 0.45352262 -0.6406134
000040 87 d2 77 bf bc ed 8e bd 6d f7 4c be 0f ad af be
       -0.96805614 -0.06978938 -0.2001626 -0.3431172
000050 d2 76 42 be d4 0d 0b 3f d8 87 a6 bd 25 dc 2e 3f
       -0.18990639 0.54317975 -0.08131379 0.68304664
000060 3d da 08 3f 8f c2 8d 3f 93 42 0b 3f 77 0a 12 bf
       0.53458005 1.1075 0.5439846 -0.5704722
000070 ac d1 83 bf 4d 4c 91 be b6 82 d4 be d6 17 93 3e
       -1.0298362 -0.28378525 -0.41505975 0.28729123
000080 96 3b 45 bf fa e3 f5 bd 09 18 53 bf 06 52 52 3e
       -0.77044046 -0.12006374 -0.8245855 0.20539102
000090 4f 85 7e be a8 ab 67 3e 7b 17 15 be 34 2f 51 3e
       -0.2485554 0.22624075 -0.14559738 0.20428163
0000a0 7c 5d 5d bf 06 f2 4e 3f a3 4f 94 3e 00 f9 d5 be
       -0.8647077 0.8083805 0.28967008 -0.41791534
0000b0 8c b6 5e bf 77 71 84 3e 37 d6 1a 3f 41 23 51 bf
       -0.86997294 0.25867817 0.60483116 -0.8169442
0000c0 71 f0 cc 3e 32 34 c9 be d9 f7 fa 3d 76 e5 80 bf
       0.40027192 -0.39297634 0.122543044 -1.0070026
0000d0 a8 ed a6 3c d3 e0 8b be 06 57 97 bd 5f fd b7 be
       0.020376995 -0.27319965 -0.07389645 -0.35935494
0000e0 1d d7 11 bf 60 fa 6f 3f 23 93 3b 3f ab 28 1c bd
       -0.5696886 0.93741417 0.7327139 -0.03812472
0000f0 59 8e 87 bd 7c 9c 1e be 5d 22 fa 3e 60 59 af be
       -0.066189475 -0.15489382 0.48854342 -0.34247875

batch_norm_lstm.running_mean f4 [64]
000000 0a 82 40 be c4 92 79 3a d6 b8 30 3e 2c 60 43 be
       -0.18799606 0.0009520466 0.1725801 -0.19079655
000010 3b 88 44 3f db a4 80 bb 5a 5c 96 3d 9d 41 58 3f
       0.7677037 -0.0039259023 0.073418334 0.8447512
000020 4a 63 33 3e 83 a9 e1 be 64 54 16 3c 80 1a 23 3a
       0.17518345 -0.4407464 0.009175394 0.00062219054
000030 62 82 c0 be 7b b0 38 3c ee 01 8f ba 84 35 d3 bd
       -0.37599474 0.011272545 -0.0010910609 -0.10312942
000040 fd 1a 29 be 4a 97 21 b9 87 6c 01 3a 23 e2 90 be
       -0.16514201 -0.00015410516 0.00049371313 -0.2829753
000050 43 ae 06 3c 32 82 2c 3e 26 63 7b bb 4c 4f 8a 3e
       0.008220258 0.1684654 -0.0038358658 0.27013624
000060 3f 32 a0 3d 33 59 a2 3d dd 77 5f 3e d5 cf 48 bc
       0.07822084 0.0792717 0.21823068 -0.012256582
000070 43 d5 15 be fe fc 12 be d6 a2 a2 bd 62 b8 c7 3d
       -0.14632134 -0.14354321 -0.07941215 0.09751965
000080 46 be 68 3f aa c8 b5 3e 69 cf 1f be 16 75 bb 3d
       0.90915334 0.35504657 -0.15606464 0.09153192
000090 1d f6 11 be 73 4e 30 3b a2 82 bd bc 20 f8 26 b9
       -0.14254041 0.0026902228 -0.02313358 -0.00015923427
0000a0 f3 6e be bd 19 02 74 3e 09 52 d3 3c d7 4d 73 be
       -0.09298506 0.23828925 0.025795953 -0.23760162
0000b0 6c f6 a2 be 2f fe b5 3c 93 41 ad 3e 03 96 07 be
       -0.3182863 0.02221593 0.33839092 -0.13240819
0000c0 b0 50 24 3e 36 75 59 bd 31 e7 a9 3d 36 82 62 bd
       0.16046405 -0.053090297 0.082960494 -0.05529996
0000d0 d5 c9 2a 3f d7 61 d4 bb 43 b7 af 3c 16 b2 c9 be
       0.6671422 -0.00648139 0.02144969 -0.3939368
0000e0 6d 3b 54 be c4 5e 39 3e 67 3d 13 3d 5d 43 08 be
       -0.20725794 0.18102556 0.03594723 -0.13306947
0000f0 d8 72 2b 3c 45 f7 df 3e 26 1a ba 3d 00 4a b1 bd
       0.010464393 0.4374334 0.09087019 -0.086566925

batch_norm_lstm.running_var f4 [64]
000000 dc d5 2e 3d 11 ac d0 39 e0 11 00 3d 76 14 4c 3d
       0.04268442 0.0003980105 0.031267047 0.0498242
000010 c0 fc 7c 3d ee ef 3f 3b b3 be fe 3c 7f 58 d6 3c
       0.06176448 0.0029287296 0.031096792 0.026165245
000020 9a ea 17 3d 19 10 3f 3e cd 8d d4 3a 16 40 b8 39
       0.037088968 0.18658485 0.0016216576 0.00035142963
000030 ac 44 1a 3e 31 db 39 3a 7c e2 0e 3b 4c cc 96 3c
       0.15065259 0.0007089852 0.0021802476 0.018407963
000040 d5 6c 1c 3d 03 b9 cb 38 e2 21 57 3b 94 b9 c2 3d
       0.038189728 9.7142554e-05 0.0032826592 0.095080525
000050 7e 05 08 3c b4 dc 3c 3d 34 b4 b0 3a c4 b8 9c 3d
       0.008302091 0.046108916 0.0013481439 0.07652429
000060 6a 29 5e 3c e6 11 80 3c 07 10 e7 3d 13 63 91 3a
       0.013559679 0.015633535 0.11282354 0.0011092148
000070 e5 84 2a 3d 5e b7 44 3d 8f 4e 2d 3c da 58 57 3c
       0.041630644 0.048026435 0.010577812 0.013143742
000080 40 c7 6e 3c e4 ad ef 3d d2 7c 14 3d 84 19 45 3c
       0.014573872 0.11703089 0.03625185 0.012030009
000090 1e fb 13 3d 69 ab cb 39 41 1a bf 3e 8c b2 e4 38
       0.036128156 0.00038846888 0.37324718 0.00010905144
0000a0 62 fe 48 3c 28 e0 b7 3d fd e4 fa 3b ff 8a be 3d
       0.012267681 0.08978301 0.007656692 0.09303855
0000b0 22 38 ea 3d 4a f5 ef 3b 12 5b 03 3e 4a 8d 0d 3d
       0.11436488 0.007322942 0.1282771 0.034558572
0000c0 1e 5b 51 3d de 53 09 3c 8e c0 30 3c af 94 a8 3b
       0.051112287 0.008381812 0.010788096 0.0051446776
0000d0 6d b0 6c 3d 34 85 83 3b 48 ef b2 3b 48 68 24 3e
       0.05778544 0.004013682 0.0054606535 0.16055405
0000e0 40 7c 3a 3d 8d 05 11 3d 8a 21 89 3b be 10 01 3d
       0.04552865 0.035405684 0.0041849064 0.031510107
0000f0 33 f2 f6 3b 42 62 e4 3d ad 5b 50 3c c5 20 83 3c
       0.0075361966 0.11151554 0.01271717 0.016006837

fc.weight f4 [1, 64]
000000 1d 60 3b 3f 2d 19 bb 3e ef 5f ca 3f 48 b2 91 3f
       0.7319353 0.36542645 1.5810527 1.1382532
000010 72 27 7c bf 2d 70 04 3f 7b ae 84 bf 18 ae a2 3f
       -0.9849769 0.51733667 -1.0365747 1.2709379
000020 55 c9 a3 bf 90 2c dc 3e c0 73 42 bf 7a a0 d3 3e
       -1.2795817 0.43002748 -0.7595787 0.4133337
000030 d4 ef b6 bf 1d 5f 59 bf 87 09 1c 3f 8a d2 4d 3f
       -1.429194 -0.84910756 0.6095204 0.8039938
000040 3c 8f 8f bf 22 c4 dd be bc 15 27 be 4f 18 81 3f
       -1.1215587 -0.433137 -0.16316885 1.0085543
000050 11 db 06 3d 70 ba 62 3f c4 cc 4c 3f 97 20 9a 3f
       0.03292376 0.8856573 0.7999995 1.2041196
000060 68 66 f5 be 45 ed 63 bf b8 4a 17 bf 22 7f 54 3f
       -0.47929692 -0.8903392 -0.59098387 0.8300649
000070 62 2a 97 3f dc a3 82 3f bd 08 8f bf 2b 67 76 bf
       1.1809809 1.0206256 -1.1174542 -0.9625117
000080 bf ae 65 bf 07 21 63 bf 1d bd 79 3f 1d 74 8a bf
       -0.89719766 -0.8872227 0.9755419 -1.0816685
000090 05 16 14 3f 1f b2 a0 bf ed 61 a9 3f 6f b0 bd 3e
       0.578461 -1.2554358 1.323301 0.3704867
0000a0 15 99 87 bf 19 ae 25 bf b8 53 44 bf 86 88 39 bf
       -1.0593592 -0.64718777 -0.76690245 -0.72473943
0000b0 9f f7 92 bf 1b aa 43 bf 3d a2 65 3f fd d4 57 bf
       -1.1481818 -0.76431435 0.8970068 -0.8430937
0000c0 e7 10 63 bf 1c 27 85 3f a9 89 73 bf 4d ea b0 bf
       -0.88697666 1.040256 -0.9513193 -1.3821503
0000d0 6d a2 78 3f 2e 86 9c 3e 6b a5 1c 3f dd 08 7e 3f
       0.9712284 0.3057112 0.6118991 0.99232274
0000e0 2d 25 83 bf f7 a4 a1 3f fe e8 87 bf dd 6c 22 bf
       -1.024572 1.2628468 -1.0617979 -0.6344736
0000f0 45 06 e7 be a0 8d 23 bf 38 77 90 3f 0e b3 99 3f
       -0.4512197 -0.6388798 1.1286383 1.2007768
